Bottle v0.12.13 server starting up (using WSGIRefServer())...
Listening on http://192.168.0.252:6666/
Hit Ctrl-C to quit.

WARNING: Logging before InitGoogleLogging() is written to STDERR
I0111 17:47:23.706339  4645 net.cpp:49] Initializing net from parameters: 
name: "ZF"
input: "data"
input: "im_info"
state {
  phase: TEST
}
input_shape {
  dim: 1
  dim: 3
  dim: 224
  dim: 224
}
input_shape {
  dim: 1
  dim: 3
}
layer {
  name: "conv1"
  type: "Convolution"
  bottom: "data"
  top: "conv1"
  convolution_param {
    num_output: 96
    pad: 3
    kernel_size: 7
    stride: 2
  }
}
layer {
  name: "relu1"
  type: "ReLU"
  bottom: "conv1"
  top: "conv1"
}
layer {
  name: "norm1"
  type: "LRN"
  bottom: "conv1"
  top: "norm1"
  lrn_param {
    local_size: 3
    alpha: 5e-05
    beta: 0.75
    norm_region: WITHIN_CHANNEL
    engine: CAFFE
  }
}
layer {
  name: "pool1"
  type: "Pooling"
  bottom: "norm1"
  top: "pool1"
  pooling_param {
    pool: MAX
    kernel_size: 3
    stride: 2
    pad: 1
  }
}
layer {
  name: "conv2"
  type: "Convolution"
  bottom: "pool1"
  top: "conv2"
  convolution_param {
    num_output: 256
    pad: 2
    kernel_size: 5
    stride: 2
  }
}
layer {
  name: "relu2"
  type: "ReLU"
  bottom: "conv2"
  top: "conv2"
}
layer {
  name: "norm2"
  type: "LRN"
  bottom: "conv2"
  top: "norm2"
  lrn_param {
    local_size: 3
    alpha: 5e-05
    beta: 0.75
    norm_region: WITHIN_CHANNEL
    engine: CAFFE
  }
}
layer {
  name: "pool2"
  type: "Pooling"
  bottom: "norm2"
  top: "pool2"
  pooling_param {
    pool: MAX
    kernel_size: 3
    stride: 2
    pad: 1
  }
}
layer {
  name: "conv3"
  type: "Convolution"
  bottom: "pool2"
  top: "conv3"
  convolution_param {
    num_output: 384
    pad: 1
    kernel_size: 3
    stride: 1
  }
}
layer {
  name: "relu3"
  type: "ReLU"
  bottom: "conv3"
  top: "conv3"
}
layer {
  name: "conv4"
  type: "Convolution"
  bottom: "conv3"
  top: "conv4"
  convolution_param {
    num_output: 384
    pad: 1
    kernel_size: 3
    stride: 1
  }
}
layer {
  name: "relu4"
  type: "ReLU"
  bottom: "conv4"
  top: "conv4"
}
layer {
  name: "conv5"
  type: "Convolution"
  bottom: "conv4"
  top: "conv5"
  convolution_param {
    num_output: 256
    pad: 1
    kernel_size: 3
    stride: 1
  }
}
layer {
  name: "relu5"
  type: "ReLU"
  bottom: "conv5"
  top: "conv5"
}
layer {
  name: "rpn_conv/3x3"
  type: "Convolution"
  bottom: "conv5"
  top: "rpn/output"
  convolution_param {
    num_output: 256
    pad: 1
    kernel_size: 3
    stride: 1
    weight_filler {
      type: "gaussian"
      std: 0.01
    }
    bias_filler {
      type: "constant"
      value: 0
    }
  }
}
layer {
  name: "rpn_relu/3x3"
  type: "ReLU"
  bottom: "rpn/output"
  top: "rpn/output"
}
layer {
  name: "rpn_cls_score"
  type: "Convolution"
  bottom: "rpn/output"
  top: "rpn_cls_score"
  convolution_param {
    num_output: 18
    pad: 0
    kernel_size: 1
    stride: 1
    weight_filler {
      type: "gaussian"
      std: 0.01
    }
    bias_filler {
      type: "constant"
      value: 0
    }
  }
}
layer {
  name: "rpn_bbox_pred"
  type: "Convolution"
  bottom: "rpn/output"
  top: "rpn_bbox_pred"
  convolution_param {
    num_output: 36
    pad: 0
    kernel_size: 1
    stride: 1
    weight_filler {
      type: "gaussian"
      std: 0.01
    }
    bias_filler {
      type: "constant"
      value: 0
    }
  }
}
layer {
  name: "rpn_cls_score_reshape"
  type: "Reshape"
  bottom: "rpn_cls_score"
  top: "rpn_cls_score_reshape"
  reshape_param {
    shape {
      dim: 0
      dim: 2
      dim: -1
      dim: 0
    }
  }
}
layer {
  name: "rpn_cls_prob"
  type: "Softmax"
  bottom: "rpn_cls_score_reshape"
  top: "rpn_cls_prob"
}
layer {
  name: "rpn_cls_prob_reshape"
  type: "Reshape"
  bottom: "rpn_cls_prob"
  top: "rpn_cls_prob_reshape"
  reshape_param {
    shape {
      dim: 0
      dim: 18
      dim: -1
      dim: 0
    }
  }
}
layer {
  name: "proposal"
  type: "Python"
  bottom: "rpn_cls_prob_reshape"
  bottom: "rpn_bbox_pred"
  bottom: "im_info"
  top: "rois"
  python_param {
    module: "rpn.proposal_layer"
    layer: "ProposalLayer"
    param_str: "\'feat_stride\': 16"
  }
}
layer {
  name: "roi_pool_conv5"
  type: "ROIPooling"
  bottom: "conv5"
  bottom: "rois"
  top: "roi_pool_conv5"
  roi_pooling_param {
    pooled_h: 6
    pooled_w: 6
    spatial_scale: 0.0625
  }
}
layer {
  name: "fc6"
  type: "InnerProduct"
  bottom: "roi_pool_conv5"
  top: "fc6"
  inner_product_param {
    num_output: 4096
  }
}
layer {
  name: "relu6"
  type: "ReLU"
  bottom: "fc6"
  top: "fc6"
}
layer {
  name: "drop6"
  type: "Dropout"
  bottom: "fc6"
  top: "fc6"
  dropout_param {
    dropout_ratio: 0.5
    scale_train: false
  }
}
layer {
  name: "fc7"
  type: "InnerProduct"
  bottom: "fc6"
  top: "fc7"
  inner_product_param {
    num_output: 4096
  }
}
layer {
  name: "relu7"
  type: "ReLU"
  bottom: "fc7"
  top: "fc7"
}
layer {
  name: "drop7"
  type: "Dropout"
  bottom: "fc7"
  top: "fc7"
  dropout_param {
    dropout_ratio: 0.5
    scale_train: false
  }
}
layer {
  name: "cls_score"
  type: "InnerProduct"
  bottom: "fc7"
  top: "cls_score"
  inner_product_param {
    num_output: 21
  }
}
layer {
  name: "bbox_pred"
  type: "InnerProduct"
  bottom: "fc7"
  top: "bbox_pred"
  inner_product_param {
    num_output: 84
  }
}
layer {
  name: "cls_prob"
  type: "Softmax"
  bottom: "cls_score"
  top: "cls_prob"
  loss_param {
    ignore_label: -1
    normalize: true
  }
}
I0111 17:47:23.706779  4645 net.cpp:413] Input 0 -> data
I0111 17:47:26.336902  4645 net.cpp:413] Input 1 -> im_info
I0111 17:47:26.336958  4645 layer_factory.hpp:77] Creating layer conv1
I0111 17:47:26.336977  4645 net.cpp:106] Creating Layer conv1
I0111 17:47:26.336982  4645 net.cpp:454] conv1 <- data
I0111 17:47:26.336989  4645 net.cpp:411] conv1 -> conv1
I0111 17:47:26.370966  4645 net.cpp:150] Setting up conv1
I0111 17:47:26.370996  4645 net.cpp:157] Top shape: 1 96 112 112 (1204224)
I0111 17:47:26.371004  4645 net.cpp:165] Memory required for data: 4816896
I0111 17:47:26.371018  4645 layer_factory.hpp:77] Creating layer relu1
I0111 17:47:26.371029  4645 net.cpp:106] Creating Layer relu1
I0111 17:47:26.371034  4645 net.cpp:454] relu1 <- conv1
I0111 17:47:26.371040  4645 net.cpp:397] relu1 -> conv1 (in-place)
I0111 17:47:26.398664  4645 net.cpp:150] Setting up relu1
I0111 17:47:26.398756  4645 net.cpp:157] Top shape: 1 96 112 112 (1204224)
I0111 17:47:26.398789  4645 net.cpp:165] Memory required for data: 9633792
I0111 17:47:26.398815  4645 layer_factory.hpp:77] Creating layer norm1
I0111 17:47:26.398859  4645 net.cpp:106] Creating Layer norm1
I0111 17:47:26.398885  4645 net.cpp:454] norm1 <- conv1
I0111 17:47:26.398919  4645 net.cpp:411] norm1 -> norm1
I0111 17:47:26.400116  4645 net.cpp:150] Setting up norm1
I0111 17:47:26.400173  4645 net.cpp:157] Top shape: 1 96 112 112 (1204224)
I0111 17:47:26.400199  4645 net.cpp:165] Memory required for data: 14450688
I0111 17:47:26.400224  4645 layer_factory.hpp:77] Creating layer pool1
I0111 17:47:26.400257  4645 net.cpp:106] Creating Layer pool1
I0111 17:47:26.400281  4645 net.cpp:454] pool1 <- norm1
I0111 17:47:26.400312  4645 net.cpp:411] pool1 -> pool1
I0111 17:47:26.400451  4645 net.cpp:150] Setting up pool1
I0111 17:47:26.400485  4645 net.cpp:157] Top shape: 1 96 57 57 (311904)
I0111 17:47:26.400509  4645 net.cpp:165] Memory required for data: 15698304
I0111 17:47:26.400532  4645 layer_factory.hpp:77] Creating layer conv2
I0111 17:47:26.400573  4645 net.cpp:106] Creating Layer conv2
I0111 17:47:26.400595  4645 net.cpp:454] conv2 <- pool1
I0111 17:47:26.400624  4645 net.cpp:411] conv2 -> conv2
I0111 17:47:26.408339  4645 net.cpp:150] Setting up conv2
I0111 17:47:26.408401  4645 net.cpp:157] Top shape: 1 256 29 29 (215296)
I0111 17:47:26.408421  4645 net.cpp:165] Memory required for data: 16559488
I0111 17:47:26.408457  4645 layer_factory.hpp:77] Creating layer relu2
I0111 17:47:26.408483  4645 net.cpp:106] Creating Layer relu2
I0111 17:47:26.408500  4645 net.cpp:454] relu2 <- conv2
I0111 17:47:26.408521  4645 net.cpp:397] relu2 -> conv2 (in-place)
I0111 17:47:26.408547  4645 net.cpp:150] Setting up relu2
I0111 17:47:26.408566  4645 net.cpp:157] Top shape: 1 256 29 29 (215296)
I0111 17:47:26.408596  4645 net.cpp:165] Memory required for data: 17420672
I0111 17:47:26.408610  4645 layer_factory.hpp:77] Creating layer norm2
I0111 17:47:26.408632  4645 net.cpp:106] Creating Layer norm2
I0111 17:47:26.408648  4645 net.cpp:454] norm2 <- conv2
I0111 17:47:26.408668  4645 net.cpp:411] norm2 -> norm2
I0111 17:47:26.408943  4645 net.cpp:150] Setting up norm2
I0111 17:47:26.408978  4645 net.cpp:157] Top shape: 1 256 29 29 (215296)
I0111 17:47:26.409005  4645 net.cpp:165] Memory required for data: 18281856
I0111 17:47:26.409020  4645 layer_factory.hpp:77] Creating layer pool2
I0111 17:47:26.409041  4645 net.cpp:106] Creating Layer pool2
I0111 17:47:26.409057  4645 net.cpp:454] pool2 <- norm2
I0111 17:47:26.409077  4645 net.cpp:411] pool2 -> pool2
I0111 17:47:26.409170  4645 net.cpp:150] Setting up pool2
I0111 17:47:26.409193  4645 net.cpp:157] Top shape: 1 256 15 15 (57600)
I0111 17:47:26.409209  4645 net.cpp:165] Memory required for data: 18512256
I0111 17:47:26.409224  4645 layer_factory.hpp:77] Creating layer conv3
I0111 17:47:26.409251  4645 net.cpp:106] Creating Layer conv3
I0111 17:47:26.409267  4645 net.cpp:454] conv3 <- pool2
I0111 17:47:26.409286  4645 net.cpp:411] conv3 -> conv3
I0111 17:47:26.414695  4645 net.cpp:150] Setting up conv3
I0111 17:47:26.414750  4645 net.cpp:157] Top shape: 1 384 15 15 (86400)
I0111 17:47:26.414769  4645 net.cpp:165] Memory required for data: 18857856
I0111 17:47:26.414801  4645 layer_factory.hpp:77] Creating layer relu3
I0111 17:47:26.414825  4645 net.cpp:106] Creating Layer relu3
I0111 17:47:26.414841  4645 net.cpp:454] relu3 <- conv3
I0111 17:47:26.414860  4645 net.cpp:397] relu3 -> conv3 (in-place)
I0111 17:47:26.414885  4645 net.cpp:150] Setting up relu3
I0111 17:47:26.414904  4645 net.cpp:157] Top shape: 1 384 15 15 (86400)
I0111 17:47:26.414918  4645 net.cpp:165] Memory required for data: 19203456
I0111 17:47:26.414932  4645 layer_factory.hpp:77] Creating layer conv4
I0111 17:47:26.414955  4645 net.cpp:106] Creating Layer conv4
I0111 17:47:26.414971  4645 net.cpp:454] conv4 <- conv3
I0111 17:47:26.414991  4645 net.cpp:411] conv4 -> conv4
I0111 17:47:26.422462  4645 net.cpp:150] Setting up conv4
I0111 17:47:26.422536  4645 net.cpp:157] Top shape: 1 384 15 15 (86400)
I0111 17:47:26.422555  4645 net.cpp:165] Memory required for data: 19549056
I0111 17:47:26.422582  4645 layer_factory.hpp:77] Creating layer relu4
I0111 17:47:26.422608  4645 net.cpp:106] Creating Layer relu4
I0111 17:47:26.422626  4645 net.cpp:454] relu4 <- conv4
I0111 17:47:26.422646  4645 net.cpp:397] relu4 -> conv4 (in-place)
I0111 17:47:26.422672  4645 net.cpp:150] Setting up relu4
I0111 17:47:26.422690  4645 net.cpp:157] Top shape: 1 384 15 15 (86400)
I0111 17:47:26.422703  4645 net.cpp:165] Memory required for data: 19894656
I0111 17:47:26.422718  4645 layer_factory.hpp:77] Creating layer conv5
I0111 17:47:26.422741  4645 net.cpp:106] Creating Layer conv5
I0111 17:47:26.422757  4645 net.cpp:454] conv5 <- conv4
I0111 17:47:26.422777  4645 net.cpp:411] conv5 -> conv5
I0111 17:47:26.429133  4645 net.cpp:150] Setting up conv5
I0111 17:47:26.429183  4645 net.cpp:157] Top shape: 1 256 15 15 (57600)
I0111 17:47:26.429200  4645 net.cpp:165] Memory required for data: 20125056
I0111 17:47:26.429234  4645 layer_factory.hpp:77] Creating layer relu5
I0111 17:47:26.429256  4645 net.cpp:106] Creating Layer relu5
I0111 17:47:26.429273  4645 net.cpp:454] relu5 <- conv5
I0111 17:47:26.429293  4645 net.cpp:397] relu5 -> conv5 (in-place)
I0111 17:47:26.429318  4645 net.cpp:150] Setting up relu5
I0111 17:47:26.429338  4645 net.cpp:157] Top shape: 1 256 15 15 (57600)
I0111 17:47:26.429352  4645 net.cpp:165] Memory required for data: 20355456
I0111 17:47:26.429368  4645 layer_factory.hpp:77] Creating layer conv5_relu5_0_split
I0111 17:47:26.429385  4645 net.cpp:106] Creating Layer conv5_relu5_0_split
I0111 17:47:26.429399  4645 net.cpp:454] conv5_relu5_0_split <- conv5
I0111 17:47:26.429419  4645 net.cpp:411] conv5_relu5_0_split -> conv5_relu5_0_split_0
I0111 17:47:26.429440  4645 net.cpp:411] conv5_relu5_0_split -> conv5_relu5_0_split_1
I0111 17:47:26.429548  4645 net.cpp:150] Setting up conv5_relu5_0_split
I0111 17:47:26.429572  4645 net.cpp:157] Top shape: 1 256 15 15 (57600)
I0111 17:47:26.429592  4645 net.cpp:157] Top shape: 1 256 15 15 (57600)
I0111 17:47:26.429607  4645 net.cpp:165] Memory required for data: 20816256
I0111 17:47:26.429621  4645 layer_factory.hpp:77] Creating layer rpn_conv/3x3
I0111 17:47:26.429649  4645 net.cpp:106] Creating Layer rpn_conv/3x3
I0111 17:47:26.429666  4645 net.cpp:454] rpn_conv/3x3 <- conv5_relu5_0_split_0
I0111 17:47:26.429687  4645 net.cpp:411] rpn_conv/3x3 -> rpn/output
I0111 17:47:26.458452  4645 net.cpp:150] Setting up rpn_conv/3x3
I0111 17:47:26.458477  4645 net.cpp:157] Top shape: 1 256 15 15 (57600)
I0111 17:47:26.458482  4645 net.cpp:165] Memory required for data: 21046656
I0111 17:47:26.458489  4645 layer_factory.hpp:77] Creating layer rpn_relu/3x3
I0111 17:47:26.458499  4645 net.cpp:106] Creating Layer rpn_relu/3x3
I0111 17:47:26.458503  4645 net.cpp:454] rpn_relu/3x3 <- rpn/output
I0111 17:47:26.458509  4645 net.cpp:397] rpn_relu/3x3 -> rpn/output (in-place)
I0111 17:47:26.458516  4645 net.cpp:150] Setting up rpn_relu/3x3
I0111 17:47:26.458520  4645 net.cpp:157] Top shape: 1 256 15 15 (57600)
I0111 17:47:26.458524  4645 net.cpp:165] Memory required for data: 21277056
I0111 17:47:26.458528  4645 layer_factory.hpp:77] Creating layer rpn/output_rpn_relu/3x3_0_split
I0111 17:47:26.458533  4645 net.cpp:106] Creating Layer rpn/output_rpn_relu/3x3_0_split
I0111 17:47:26.458535  4645 net.cpp:454] rpn/output_rpn_relu/3x3_0_split <- rpn/output
I0111 17:47:26.458539  4645 net.cpp:411] rpn/output_rpn_relu/3x3_0_split -> rpn/output_rpn_relu/3x3_0_split_0
I0111 17:47:26.458544  4645 net.cpp:411] rpn/output_rpn_relu/3x3_0_split -> rpn/output_rpn_relu/3x3_0_split_1
I0111 17:47:26.458570  4645 net.cpp:150] Setting up rpn/output_rpn_relu/3x3_0_split
I0111 17:47:26.458576  4645 net.cpp:157] Top shape: 1 256 15 15 (57600)
I0111 17:47:26.458580  4645 net.cpp:157] Top shape: 1 256 15 15 (57600)
I0111 17:47:26.458583  4645 net.cpp:165] Memory required for data: 21737856
I0111 17:47:26.458586  4645 layer_factory.hpp:77] Creating layer rpn_cls_score
I0111 17:47:26.458593  4645 net.cpp:106] Creating Layer rpn_cls_score
I0111 17:47:26.458596  4645 net.cpp:454] rpn_cls_score <- rpn/output_rpn_relu/3x3_0_split_0
I0111 17:47:26.458601  4645 net.cpp:411] rpn_cls_score -> rpn_cls_score
I0111 17:47:26.458855  4645 net.cpp:150] Setting up rpn_cls_score
I0111 17:47:26.458863  4645 net.cpp:157] Top shape: 1 18 15 15 (4050)
I0111 17:47:26.458866  4645 net.cpp:165] Memory required for data: 21754056
I0111 17:47:26.458871  4645 layer_factory.hpp:77] Creating layer rpn_bbox_pred
I0111 17:47:26.458878  4645 net.cpp:106] Creating Layer rpn_bbox_pred
I0111 17:47:26.458881  4645 net.cpp:454] rpn_bbox_pred <- rpn/output_rpn_relu/3x3_0_split_1
I0111 17:47:26.458886  4645 net.cpp:411] rpn_bbox_pred -> rpn_bbox_pred
I0111 17:47:26.459233  4645 net.cpp:150] Setting up rpn_bbox_pred
I0111 17:47:26.459239  4645 net.cpp:157] Top shape: 1 36 15 15 (8100)
I0111 17:47:26.459242  4645 net.cpp:165] Memory required for data: 21786456
I0111 17:47:26.459247  4645 layer_factory.hpp:77] Creating layer rpn_cls_score_reshape
I0111 17:47:26.459257  4645 net.cpp:106] Creating Layer rpn_cls_score_reshape
I0111 17:47:26.459260  4645 net.cpp:454] rpn_cls_score_reshape <- rpn_cls_score
I0111 17:47:26.459265  4645 net.cpp:411] rpn_cls_score_reshape -> rpn_cls_score_reshape
I0111 17:47:26.459295  4645 net.cpp:150] Setting up rpn_cls_score_reshape
I0111 17:47:26.459301  4645 net.cpp:157] Top shape: 1 2 135 15 (4050)
I0111 17:47:26.459306  4645 net.cpp:165] Memory required for data: 21802656
I0111 17:47:26.459308  4645 layer_factory.hpp:77] Creating layer rpn_cls_prob
I0111 17:47:26.459313  4645 net.cpp:106] Creating Layer rpn_cls_prob
I0111 17:47:26.459317  4645 net.cpp:454] rpn_cls_prob <- rpn_cls_score_reshape
I0111 17:47:26.459321  4645 net.cpp:411] rpn_cls_prob -> rpn_cls_prob
I0111 17:47:26.467005  4645 net.cpp:150] Setting up rpn_cls_prob
I0111 17:47:26.467025  4645 net.cpp:157] Top shape: 1 2 135 15 (4050)
I0111 17:47:26.467032  4645 net.cpp:165] Memory required for data: 21818856
I0111 17:47:26.467037  4645 layer_factory.hpp:77] Creating layer rpn_cls_prob_reshape
I0111 17:47:26.467046  4645 net.cpp:106] Creating Layer rpn_cls_prob_reshape
I0111 17:47:26.467051  4645 net.cpp:454] rpn_cls_prob_reshape <- rpn_cls_prob
I0111 17:47:26.467059  4645 net.cpp:411] rpn_cls_prob_reshape -> rpn_cls_prob_reshape
I0111 17:47:26.467082  4645 net.cpp:150] Setting up rpn_cls_prob_reshape
I0111 17:47:26.467089  4645 net.cpp:157] Top shape: 1 18 15 15 (4050)
I0111 17:47:26.467094  4645 net.cpp:165] Memory required for data: 21835056
I0111 17:47:26.467099  4645 layer_factory.hpp:77] Creating layer proposal
I0111 17:47:26.588233  4645 net.cpp:106] Creating Layer proposal
I0111 17:47:26.588255  4645 net.cpp:454] proposal <- rpn_cls_prob_reshape
I0111 17:47:26.588263  4645 net.cpp:454] proposal <- rpn_bbox_pred
I0111 17:47:26.588268  4645 net.cpp:454] proposal <- im_info
I0111 17:47:26.588273  4645 net.cpp:411] proposal -> rois
I0111 17:47:26.588773  4645 net.cpp:150] Setting up proposal
I0111 17:47:26.588790  4645 net.cpp:157] Top shape: 1 5 (5)
I0111 17:47:26.588796  4645 net.cpp:165] Memory required for data: 21835076
I0111 17:47:26.588802  4645 layer_factory.hpp:77] Creating layer roi_pool_conv5
I0111 17:47:26.588811  4645 net.cpp:106] Creating Layer roi_pool_conv5
I0111 17:47:26.588817  4645 net.cpp:454] roi_pool_conv5 <- conv5_relu5_0_split_1
I0111 17:47:26.588824  4645 net.cpp:454] roi_pool_conv5 <- rois
I0111 17:47:26.588831  4645 net.cpp:411] roi_pool_conv5 -> roi_pool_conv5
I0111 17:47:26.588840  4645 roi_pooling_layer.cpp:30] Spatial scale: 0.0625
I0111 17:47:26.588881  4645 net.cpp:150] Setting up roi_pool_conv5
I0111 17:47:26.588888  4645 net.cpp:157] Top shape: 1 256 6 6 (9216)
I0111 17:47:26.588891  4645 net.cpp:165] Memory required for data: 21871940
I0111 17:47:26.588894  4645 layer_factory.hpp:77] Creating layer fc6
I0111 17:47:26.588901  4645 net.cpp:106] Creating Layer fc6
I0111 17:47:26.588904  4645 net.cpp:454] fc6 <- roi_pool_conv5
I0111 17:47:26.588908  4645 net.cpp:411] fc6 -> fc6
I0111 17:47:26.641033  4645 net.cpp:150] Setting up fc6
I0111 17:47:26.641062  4645 net.cpp:157] Top shape: 1 4096 (4096)
I0111 17:47:26.641067  4645 net.cpp:165] Memory required for data: 21888324
I0111 17:47:26.641082  4645 layer_factory.hpp:77] Creating layer relu6
I0111 17:47:26.641093  4645 net.cpp:106] Creating Layer relu6
I0111 17:47:26.641098  4645 net.cpp:454] relu6 <- fc6
I0111 17:47:26.641103  4645 net.cpp:397] relu6 -> fc6 (in-place)
I0111 17:47:26.641109  4645 net.cpp:150] Setting up relu6
I0111 17:47:26.641113  4645 net.cpp:157] Top shape: 1 4096 (4096)
I0111 17:47:26.641116  4645 net.cpp:165] Memory required for data: 21904708
I0111 17:47:26.641119  4645 layer_factory.hpp:77] Creating layer drop6
I0111 17:47:26.641125  4645 net.cpp:106] Creating Layer drop6
I0111 17:47:26.641129  4645 net.cpp:454] drop6 <- fc6
I0111 17:47:26.641132  4645 net.cpp:397] drop6 -> fc6 (in-place)
I0111 17:47:26.641149  4645 net.cpp:150] Setting up drop6
I0111 17:47:26.641155  4645 net.cpp:157] Top shape: 1 4096 (4096)
I0111 17:47:26.641158  4645 net.cpp:165] Memory required for data: 21921092
I0111 17:47:26.641161  4645 layer_factory.hpp:77] Creating layer fc7
I0111 17:47:26.641166  4645 net.cpp:106] Creating Layer fc7
I0111 17:47:26.641170  4645 net.cpp:454] fc7 <- fc6
I0111 17:47:26.641173  4645 net.cpp:411] fc7 -> fc7
I0111 17:47:26.666484  4645 net.cpp:150] Setting up fc7
I0111 17:47:26.666515  4645 net.cpp:157] Top shape: 1 4096 (4096)
I0111 17:47:26.666519  4645 net.cpp:165] Memory required for data: 21937476
I0111 17:47:26.666529  4645 layer_factory.hpp:77] Creating layer relu7
I0111 17:47:26.666538  4645 net.cpp:106] Creating Layer relu7
I0111 17:47:26.666541  4645 net.cpp:454] relu7 <- fc7
I0111 17:47:26.666548  4645 net.cpp:397] relu7 -> fc7 (in-place)
I0111 17:47:26.666554  4645 net.cpp:150] Setting up relu7
I0111 17:47:26.666558  4645 net.cpp:157] Top shape: 1 4096 (4096)
I0111 17:47:26.666566  4645 net.cpp:165] Memory required for data: 21953860
I0111 17:47:26.666569  4645 layer_factory.hpp:77] Creating layer drop7
I0111 17:47:26.666574  4645 net.cpp:106] Creating Layer drop7
I0111 17:47:26.666579  4645 net.cpp:454] drop7 <- fc7
I0111 17:47:26.666582  4645 net.cpp:397] drop7 -> fc7 (in-place)
I0111 17:47:26.666599  4645 net.cpp:150] Setting up drop7
I0111 17:47:26.666604  4645 net.cpp:157] Top shape: 1 4096 (4096)
I0111 17:47:26.666606  4645 net.cpp:165] Memory required for data: 21970244
I0111 17:47:26.666610  4645 layer_factory.hpp:77] Creating layer fc7_drop7_0_split
I0111 17:47:26.666615  4645 net.cpp:106] Creating Layer fc7_drop7_0_split
I0111 17:47:26.666617  4645 net.cpp:454] fc7_drop7_0_split <- fc7
I0111 17:47:26.666622  4645 net.cpp:411] fc7_drop7_0_split -> fc7_drop7_0_split_0
I0111 17:47:26.666627  4645 net.cpp:411] fc7_drop7_0_split -> fc7_drop7_0_split_1
I0111 17:47:26.666651  4645 net.cpp:150] Setting up fc7_drop7_0_split
I0111 17:47:26.666656  4645 net.cpp:157] Top shape: 1 4096 (4096)
I0111 17:47:26.666661  4645 net.cpp:157] Top shape: 1 4096 (4096)
I0111 17:47:26.666663  4645 net.cpp:165] Memory required for data: 22003012
I0111 17:47:26.666666  4645 layer_factory.hpp:77] Creating layer cls_score
I0111 17:47:26.666673  4645 net.cpp:106] Creating Layer cls_score
I0111 17:47:26.666677  4645 net.cpp:454] cls_score <- fc7_drop7_0_split_0
I0111 17:47:26.666682  4645 net.cpp:411] cls_score -> cls_score
I0111 17:47:26.667428  4645 net.cpp:150] Setting up cls_score
I0111 17:47:26.667438  4645 net.cpp:157] Top shape: 1 21 (21)
I0111 17:47:26.667440  4645 net.cpp:165] Memory required for data: 22003096
I0111 17:47:26.667446  4645 layer_factory.hpp:77] Creating layer bbox_pred
I0111 17:47:26.667451  4645 net.cpp:106] Creating Layer bbox_pred
I0111 17:47:26.667455  4645 net.cpp:454] bbox_pred <- fc7_drop7_0_split_1
I0111 17:47:26.667459  4645 net.cpp:411] bbox_pred -> bbox_pred
I0111 17:47:26.667740  4645 net.cpp:150] Setting up bbox_pred
I0111 17:47:26.667748  4645 net.cpp:157] Top shape: 1 84 (84)
I0111 17:47:26.667752  4645 net.cpp:165] Memory required for data: 22003432
I0111 17:47:26.667757  4645 layer_factory.hpp:77] Creating layer cls_prob
I0111 17:47:26.667763  4645 net.cpp:106] Creating Layer cls_prob
I0111 17:47:26.667768  4645 net.cpp:454] cls_prob <- cls_score
I0111 17:47:26.667771  4645 net.cpp:411] cls_prob -> cls_prob
I0111 17:47:26.667810  4645 net.cpp:150] Setting up cls_prob
I0111 17:47:26.667814  4645 net.cpp:157] Top shape: 1 21 (21)
I0111 17:47:26.667819  4645 net.cpp:165] Memory required for data: 22003516
I0111 17:47:26.667821  4645 net.cpp:228] cls_prob does not need backward computation.
I0111 17:47:26.667824  4645 net.cpp:228] bbox_pred does not need backward computation.
I0111 17:47:26.667827  4645 net.cpp:228] cls_score does not need backward computation.
I0111 17:47:26.667831  4645 net.cpp:228] fc7_drop7_0_split does not need backward computation.
…
